Model: "sequential"
_________________________________________________________________
Layer (type)                 Output Shape              Param #
=================================================================
conv1d (Conv1D)              (None, 143, 320)          10560
_________________________________________________________________
max_pooling1d (MaxPooling1D) (None, 71, 320)           0
_________________________________________________________________
dropout (Dropout)            (None, 71, 320)           0
_________________________________________________________________
conv1d_1 (Conv1D)            (None, 64, 480)           1229280
_________________________________________________________________
max_pooling1d_1 (MaxPooling1 (None, 32, 480)           0
_________________________________________________________________
dropout_1 (Dropout)          (None, 32, 480)           0
_________________________________________________________________
conv1d_2 (Conv1D)            (None, 25, 960)           3687360
_________________________________________________________________
dropout_2 (Dropout)          (None, 25, 960)           0
_________________________________________________________________
flatten (Flatten)            (None, 24000)             0
_________________________________________________________________
dense (Dense)                (None, 925)               22200925
_________________________________________________________________
dense_1 (Dense)              (None, 2)                 1852
=================================================================
Total params: 27,129,977
Trainable params: 27,129,977
Non-trainable params: 0
_________________________________________________________________
Epoch 1/20
 1/20 [>.............................] - ETA: 1:14 - loss: 0.6920 - binary_accuracy: 0.5107
…
