Model: "sequential"
_________________________________________________________________
Layer (type)                 Output Shape              Param #   
=================================================================
conv1d (Conv1D)              (None, 193, 320)          10560     
_________________________________________________________________
max_pooling1d (MaxPooling1D) (None, 48, 320)           0         
_________________________________________________________________
dropout (Dropout)            (None, 48, 320)           0         
_________________________________________________________________
conv1d_1 (Conv1D)            (None, 41, 480)           1229280   
_________________________________________________________________
max_pooling1d_1 (MaxPooling1 (None, 10, 480)           0         
_________________________________________________________________
dropout_1 (Dropout)          (None, 10, 480)           0         
_________________________________________________________________
conv1d_2 (Conv1D)            (None, 3, 960)            3687360   
_________________________________________________________________
dropout_2 (Dropout)          (None, 3, 960)            0         
_________________________________________________________________
flatten (Flatten)            (None, 2880)              0         
_________________________________________________________________
dense (Dense)                (None, 925)               2664925   
_________________________________________________________________
dense_1 (Dense)              (None, 1)                 926       
=================================================================
Total params: 7,593,051
Trainable params: 7,593,051
Non-trainable params: 0
_________________________________________________________________
Epoch 1/30
  1/111 [..............................] - ETA: 1:51 - loss: 1.2739 - coeff_determination: 0.0206 - spearman_fn: 0.1448
…
