Model: "sequential"
_________________________________________________________________
Layer (type)                 Output Shape              Param #   
=================================================================
conv1d (Conv1D)              (None, 164, 320)          10560     
_________________________________________________________________
max_pooling1d (MaxPooling1D) (None, 41, 320)           0         
_________________________________________________________________
dropout (Dropout)            (None, 41, 320)           0         
_________________________________________________________________
conv1d_1 (Conv1D)            (None, 34, 480)           1229280   
_________________________________________________________________
max_pooling1d_1 (MaxPooling1 (None, 8, 480)            0         
_________________________________________________________________
dropout_1 (Dropout)          (None, 8, 480)            0         
_________________________________________________________________
conv1d_2 (Conv1D)            (None, 1, 960)            3687360   
_________________________________________________________________
dropout_2 (Dropout)          (None, 1, 960)            0         
_________________________________________________________________
flatten (Flatten)            (None, 960)               0         
_________________________________________________________________
dense (Dense)                (None, 925)               888925    
_________________________________________________________________
dense_1 (Dense)              (None, 1)                 926       
=================================================================
Total params: 5,817,051
Trainable params: 5,817,051
Non-trainable params: 0
_________________________________________________________________
Epoch 1/30
 1/38 [..............................] - ETA: 33s - loss: 0.2275 - coeff_determination: -0.2221 - spearman_fn: 0.0551
…
