…
ctions that this TensorFlow binary was not compiled to use: AVX2 FMA
2021-03-12 18:36:41.022250: I tensorflow/compiler/xla/service/service.cc:168] XLA service 0x7fd2d09831d0 executing computations on platform Host. Devices:
2021-03-12 18:36:41.022866: I tensorflow/compiler/xla/service/service.cc:175]   StreamExecutor device (0): Host, Default Version
Model: "sequential"
_________________________________________________________________
Layer (type)                 Output Shape              Param #   
=================================================================
conv1d (Conv1D)              (None, 153, 300)          23100     
_________________________________________________________________
batch_normalization (BatchNo (None, 153, 300)          1200      
_________________________________________________________________
re_lu (ReLU)                 (None, 153, 300)          0         
_________________________________________________________________
max_pooling1d (MaxPooling1D) (None, 51, 300)           0         
_________________________________________________________________
conv1d_1 (Conv1D)            (None, 41, 200)           660200    
_________________________________________________________________
batch_normalization_1 (Batch (None, 41, 200)           800       
_________________________________________________________________
re_lu_1 (ReLU)               (None, 41, 200)           0         
_________________________________________________________________
max_pooling1d_1 (MaxPooling1 (None, 10, 200)           0         
_________________________________________________________________
conv1d_2 (Conv1D)            (None, 4, 200)            280200    
_________________________________________________________________
batch_normalization_2 (Batch (None, 4, 200)            800       
_________________________________________________________________
re_lu_2 (ReLU)               (None, 4, 200)            0         
_________________________________________________________________
flatten (Flatten)            (None, 800)               0         
_________________________________________________________________
dense (Dense)                (None, 1000)              801000    
_________________________________________________________________
dropout (Dropout)            (None, 1000)              0         
_________________________________________________________________
dense_1 (Dense)              (None, 164)               164164    
_________________________________________________________________
dense_2 (Dense)              (None, 1)                 165       
=================================================================
Total params: 1,931,629
Trainable params: 1,930,229
Non-trainable params: 1,400
_________________________________________________________________
Train on 439 samples
Epoch 1/35
 59/439 [===>..........................] - ETA: 15s - loss: 0.7204 - binary_accuracy: 0.4576
…
