…
ctions that this TensorFlow binary was not compiled to use: AVX2 FMA
2021-03-12 18:36:41.021275: I tensorflow/compiler/xla/service/service.cc:168] XLA service 0x7ff06e5d7540 executing computations on platform Host. Devices:
2021-03-12 18:36:41.021903: I tensorflow/compiler/xla/service/service.cc:175]   StreamExecutor device (0): Host, Default Version
Model: "sequential"
_________________________________________________________________
Layer (type)                 Output Shape              Param #   
=================================================================
conv1d (Conv1D)              (None, 164, 320)          10560     
_________________________________________________________________
max_pooling1d (MaxPooling1D) (None, 41, 320)           0         
_________________________________________________________________
dropout (Dropout)            (None, 41, 320)           0         
_________________________________________________________________
conv1d_1 (Conv1D)            (None, 34, 480)           1229280   
_________________________________________________________________
max_pooling1d_1 (MaxPooling1 (None, 8, 480)            0         
_________________________________________________________________
dropout_1 (Dropout)          (None, 8, 480)            0         
_________________________________________________________________
conv1d_2 (Conv1D)            (None, 1, 960)            3687360   
_________________________________________________________________
dropout_2 (Dropout)          (None, 1, 960)            0         
_________________________________________________________________
flatten (Flatten)            (None, 960)               0         
_________________________________________________________________
dense (Dense)                (None, 925)               888925    
_________________________________________________________________
dense_1 (Dense)              (None, 1)                 926       
=================================================================
Total params: 5,817,051
Trainable params: 5,817,051
Non-trainable params: 0
_________________________________________________________________
Train on 439 samples
Epoch 1/35
 59/439 [===>..........................] - ETA: 9s - loss: 0.6870 - binary_accuracy: 0.5254
…
