…
Layer (type)                    Output Shape         Param #     Connected to                     
==================================================================================================
forward (InputLayer)            [(None, 171, 4)]     0                                            
__________________________________________________________________________________________________
reverse (InputLayer)            [(None, 171, 4)]     0                                            
__________________________________________________________________________________________________
convolution_layer (ConvolutionL (None, 153, 300)     23100       forward[0][0]                    
                                                                 reverse[0][0]                    
__________________________________________________________________________________________________
concatenate (Concatenate)       (None, 306, 300)     0           convolution_layer[0][0]          
                                                                 convolution_layer[1][0]          
__________________________________________________________________________________________________
re_lu (ReLU)                    (None, 306, 300)     0           concatenate[0][0]                
__________________________________________________________________________________________________
max_pooling1d (MaxPooling1D)    (None, 102, 300)     0           re_lu[0][0]                      
__________________________________________________________________________________________________
conv1d (Conv1D)                 (None, 92, 200)      660200      max_pooling1d[0][0]              
__________________________________________________________________________________________________
re_lu_1 (ReLU)                  (None, 92, 200)      0           conv1d[0][0]                     
__________________________________________________________________________________________________
max_pooling1d_1 (MaxPooling1D)  (None, 23, 200)      0           re_lu_1[0][0]                    
__________________________________________________________________________________________________
conv1d_1 (Conv1D)               (None, 17, 200)      280200      max_pooling1d_1[0][0]            
__________________________________________________________________________________________________
re_lu_2 (ReLU)                  (None, 17, 200)      0           conv1d_1[0][0]                   
__________________________________________________________________________________________________
flatten (Flatten)               (None, 3400)         0           re_lu_2[0][0]                    
__________________________________________________________________________________________________
dense (Dense)                   (None, 1000)         3401000     flatten[0][0]                    
__________________________________________________________________________________________________
dense_1 (Dense)                 (None, 200)          200200      dense[0][0]                      
__________________________________________________________________________________________________
dense_2 (Dense)                 (None, 1)            201         dense_1[0][0]                    
==================================================================================================
Total params: 4,564,901
Trainable params: 4,564,901
Non-trainable params: 0
__________________________________________________________________________________________________
Train on 439 samples
Epoch 1/35
 59/439 [===>..........................] - ETA: 17
…
